…
Enabling notebook extension jupyter-js-widgets/extension...
      - Validating: [32mOK[0m
UNet2(
  (last): Up(
    (up): Sequential(
      (0): ReLU(inplace=True)
      (1): ConvTranspose2d(128, 2, kernel_size=(4, 4), stride=(2, 2), padding=(1, 1))
    )
  )
)
UNet2(
  (last): Up(
    (up): Sequential(
      (0): ReLU(inplace=True)
      (1): ConvTranspose2d(128, 2, kernel_size=(4, 4), stride=(2, 2), padding=(1, 1))
    )
  )
)
----------------------------------------------------------------
        Layer (type)               Output Shape         Param #
================================================================
              ReLU-1        [-1, 128, 128, 128]               0
   ConvTranspose2d-2          [-1, 2, 256, 256]           4,098
                Up-3          [-1, 2, 256, 256]               0
================================================================
Total params: 4,098
Trainable params: 4,098
Non-trainable params: 0
----------------------------------------------------------------
Input size (MB): 0.25
Forward/backward pass size (MB): 18.00
Params size (MB): 0.02
Estimated Total Size (MB): 18.27
----------------------------------------------------------------
----------------------------------------------------------------
        Layer (type)               Output Shape         Param #
================================================================
              ReLU-1        [-1, 128, 128, 128]               0
   ConvTranspose2d-2          [-1, 2, 256, 256]           4,098
                Up-3          [-1, 2, 256, 256]               0
================================================================
Total params: 4,098
Trainable params: 4,098
Non-trainable params: 0
----------------------------------------------------------------
Input size (MB): 0.25
Forward/backward pass size (MB): 18.00
Params size (MB): 0.02
Estimated Total Size (MB): 18.27
----------------------------------------------------------------
----------------------------------------------------------------
        Layer (type)               Output Shape         Param #
================================================================
            Conv2d-1            [-1, 1, 16, 16]              10
              ReLU-2            [-1, 1, 16, 16]               0
            Conv2d-3            [-1, 1, 28, 28]              10
              ReLU-4            [-1, 1, 28, 28]               0
================================================================
Total params: 20
Trainable params: 20
Non-trainable params: 0
----------------------------------------------------------------
Input size (MB): 0.77
Forward/backward pass size (MB): 0.02
Params size (MB): 0.00
Estimated Total Size (MB): 0.78
----------------------------------------------------------------
----------------------------------------------------------------
        Layer (type)               Output Shape         Param #
================================================================
            Conv2d-1            [-1, 1, 16, 16]              10
              ReLU-2            [-1, 1, 16, 16]               0
            Conv2d-3            [-1, 1, 28, 28]              10
              ReLU-4            [-1, 1, 28, 28]               0
================================================================
Total params: 20
Trainable params: 20
Non-trainable params: 0
----------------------------------------------------------------
Input size (MB): 0.77
Forward/backward pass size (MB): 0.02
Params size (MB): 0.00
Estimated Total Size (MB): 0.78
----------------------------------------------------------------
----------------------------------------------------------------
        Layer (type)               Output Shape         Param #
================================================================
            Conv2d-1            [-1, 1, 16, 16]              10
              ReLU-2            [-1, 1, 16, 16]               0
            Conv2d-3            [-1, 1, 28, 28]              10
              ReLU-4            [-1, 1, 28, 28]               0
================================================================
Total params: 20
Trainable params: 20
Non-trainable params: 0
----------------------------------------------------------------
Input size (MB): 0.77
Forward/backward pass size (MB): 0.02
Params size (MB): 0.00
Estimated Total Size (MB): 0.78
----------------------------------------------------------------
None
